2025-05-19 15:28:20,318 - models.yolo - INFO - Overriding model.yaml nc=80 with nc=6
2025-05-19 15:28:20,319 - models.yolo - INFO -
                 from  n    params  module                                  arguments
2025-05-19 15:28:20,320 - models.yolo - INFO -   0                -1  1       928  物体检测.YOLO_LEARN.models.common.Conv      [3, 32, 3, 1]
2025-05-19 15:28:20,321 - models.yolo - INFO -   1                -1  1     18560  物体检测.YOLO_LEARN.models.common.Conv      [32, 64, 3, 2]
2025-05-19 15:28:20,321 - models.yolo - INFO -   2                -1  1     36992  物体检测.YOLO_LEARN.models.common.Conv      [64, 64, 3, 1]
2025-05-19 15:28:20,321 - models.yolo - INFO -   3                -1  1     73984  物体检测.YOLO_LEARN.models.common.Conv      [64, 128, 3, 2]
2025-05-19 15:28:20,322 - models.yolo - INFO -   4                -1  1      8320  物体检测.YOLO_LEARN.models.common.Conv      [128, 64, 1, 1]
2025-05-19 15:28:20,322 - models.yolo - INFO -   5                -2  1      8320  物体检测.YOLO_LEARN.models.common.Conv      [128, 64, 1, 1]
2025-05-19 15:28:20,323 - models.yolo - INFO -   6                -1  1     36992  物体检测.YOLO_LEARN.models.common.Conv      [64, 64, 3, 1]
2025-05-19 15:28:20,323 - models.yolo - INFO -   7                -1  1     36992  物体检测.YOLO_LEARN.models.common.Conv      [64, 64, 3, 1]
2025-05-19 15:28:20,324 - models.yolo - INFO -   8                -1  1     36992  物体检测.YOLO_LEARN.models.common.Conv      [64, 64, 3, 1]
2025-05-19 15:28:20,324 - models.yolo - INFO -   9                -1  1     36992  物体检测.YOLO_LEARN.models.common.Conv      [64, 64, 3, 1]
2025-05-19 15:28:20,324 - models.yolo - INFO -  10  [-1, -3, -5, -6]  1         0  物体检测.YOLO_LEARN.models.common.Concat    [1]
2025-05-19 15:28:20,324 - models.yolo - INFO -  11                -1  1     66048  物体检测.YOLO_LEARN.models.common.Conv      [256, 256, 1, 1]
2025-05-19 15:28:20,325 - models.yolo - INFO -  12                -1  1         0  物体检测.YOLO_LEARN.models.common.MP        []
2025-05-19 15:28:20,325 - models.yolo - INFO -  13                -1  1     33024  物体检测.YOLO_LEARN.models.common.Conv      [256, 128, 1, 1]
2025-05-19 15:28:20,325 - models.yolo - INFO -  14                -3  1     33024  物体检测.YOLO_LEARN.models.common.Conv      [256, 128, 1, 1]
2025-05-19 15:28:20,326 - models.yolo - INFO -  15                -1  1    147712  物体检测.YOLO_LEARN.models.common.Conv      [128, 128, 3, 2]
2025-05-19 15:28:20,326 - models.yolo - INFO -  16          [-1, -3]  1         0  物体检测.YOLO_LEARN.models.common.Concat    [1]
2025-05-19 15:28:20,326 - models.yolo - INFO -  17                -1  1     33024  物体检测.YOLO_LEARN.models.common.Conv      [256, 128, 1, 1]
2025-05-19 15:28:20,327 - models.yolo - INFO -  18                -2  1     33024  物体检测.YOLO_LEARN.models.common.Conv      [256, 128, 1, 1]
2025-05-19 15:28:20,328 - models.yolo - INFO -  19                -1  1    147712  物体检测.YOLO_LEARN.models.common.Conv      [128, 128, 3, 1]
2025-05-19 15:28:20,329 - models.yolo - INFO -  20                -1  1    147712  物体检测.YOLO_LEARN.models.common.Conv      [128, 128, 3, 1]
2025-05-19 15:28:20,329 - models.yolo - INFO -  21                -1  1    147712  物体检测.YOLO_LEARN.models.common.Conv      [128, 128, 3, 1]
2025-05-19 15:28:20,330 - models.yolo - INFO -  22                -1  1    147712  物体检测.YOLO_LEARN.models.common.Conv      [128, 128, 3, 1]
2025-05-19 15:28:20,330 - models.yolo - INFO -  23  [-1, -3, -5, -6]  1         0  物体检测.YOLO_LEARN.models.common.Concat    [1]
2025-05-19 15:28:20,331 - models.yolo - INFO -  24                -1  1    263168  物体检测.YOLO_LEARN.models.common.Conv      [512, 512, 1, 1]
2025-05-19 15:28:20,331 - models.yolo - INFO -  25                -1  1         0  物体检测.YOLO_LEARN.models.common.MP        []
2025-05-19 15:28:20,332 - models.yolo - INFO -  26                -1  1    131584  物体检测.YOLO_LEARN.models.common.Conv      [512, 256, 1, 1]
2025-05-19 15:28:20,333 - models.yolo - INFO -  27                -3  1    131584  物体检测.YOLO_LEARN.models.common.Conv      [512, 256, 1, 1]
2025-05-19 15:28:20,334 - models.yolo - INFO -  28                -1  1    590336  物体检测.YOLO_LEARN.models.common.Conv      [256, 256, 3, 2]
2025-05-19 15:28:20,335 - models.yolo - INFO -  29          [-1, -3]  1         0  物体检测.YOLO_LEARN.models.common.Concat    [1]
2025-05-19 15:28:20,335 - models.yolo - INFO -  30                -1  1    131584  物体检测.YOLO_LEARN.models.common.Conv      [512, 256, 1, 1]
2025-05-19 15:28:20,336 - models.yolo - INFO -  31                -2  1    131584  物体检测.YOLO_LEARN.models.common.Conv      [512, 256, 1, 1]
2025-05-19 15:28:20,338 - models.yolo - INFO -  32                -1  1    590336  物体检测.YOLO_LEARN.models.common.Conv      [256, 256, 3, 1]
2025-05-19 15:28:20,340 - models.yolo - INFO -  33                -1  1    590336  物体检测.YOLO_LEARN.models.common.Conv      [256, 256, 3, 1]
2025-05-19 15:28:20,342 - models.yolo - INFO -  34                -1  1    590336  物体检测.YOLO_LEARN.models.common.Conv      [256, 256, 3, 1]
2025-05-19 15:28:20,344 - models.yolo - INFO -  35                -1  1    590336  物体检测.YOLO_LEARN.models.common.Conv      [256, 256, 3, 1]
2025-05-19 15:28:20,344 - models.yolo - INFO -  36  [-1, -3, -5, -6]  1         0  物体检测.YOLO_LEARN.models.common.Concat    [1]
2025-05-19 15:28:20,347 - models.yolo - INFO -  37                -1  1   1050624  物体检测.YOLO_LEARN.models.common.Conv      [1024, 1024, 1, 1]
2025-05-19 15:28:20,348 - models.yolo - INFO -  38                -1  1         0  物体检测.YOLO_LEARN.models.common.MP        []
2025-05-19 15:28:20,350 - models.yolo - INFO -  39                -1  1    525312  物体检测.YOLO_LEARN.models.common.Conv      [1024, 512, 1, 1]
2025-05-19 15:28:20,352 - models.yolo - INFO -  40                -3  1    525312  物体检测.YOLO_LEARN.models.common.Conv      [1024, 512, 1, 1]
2025-05-19 15:28:20,359 - models.yolo - INFO -  41                -1  1   2360320  物体检测.YOLO_LEARN.models.common.Conv      [512, 512, 3, 2]
2025-05-19 15:28:20,360 - models.yolo - INFO -  42          [-1, -3]  1         0  物体检测.YOLO_LEARN.models.common.Concat    [1]
2025-05-19 15:28:20,360 - models.yolo - INFO -  43                -1  1    262656  物体检测.YOLO_LEARN.models.common.Conv      [1024, 256, 1, 1]
2025-05-19 15:28:20,362 - models.yolo - INFO -  44                -2  1    262656  物体检测.YOLO_LEARN.models.common.Conv      [1024, 256, 1, 1]
2025-05-19 15:28:20,365 - models.yolo - INFO -  45                -1  1    590336  物体检测.YOLO_LEARN.models.common.Conv      [256, 256, 3, 1]
2025-05-19 15:28:20,367 - models.yolo - INFO -  46                -1  1    590336  物体检测.YOLO_LEARN.models.common.Conv      [256, 256, 3, 1]
2025-05-19 15:28:20,368 - models.yolo - INFO -  47                -1  1    590336  物体检测.YOLO_LEARN.models.common.Conv      [256, 256, 3, 1]
2025-05-19 15:28:20,371 - models.yolo - INFO -  48                -1  1    590336  物体检测.YOLO_LEARN.models.common.Conv      [256, 256, 3, 1]
2025-05-19 15:28:20,371 - models.yolo - INFO -  49  [-1, -3, -5, -6]  1         0  物体检测.YOLO_LEARN.models.common.Concat    [1]
2025-05-19 15:28:20,374 - models.yolo - INFO -  50                -1  1   1050624  物体检测.YOLO_LEARN.models.common.Conv      [1024, 1024, 1, 1]
2025-05-19 15:28:20,398 - models.yolo - INFO -  51                -1  1   7609344  物体检测.YOLO_LEARN.models.common.SPPCSPC   [1024, 512, 1]
2025-05-19 15:28:20,399 - models.yolo - INFO -  52                -1  1    131584  物体检测.YOLO_LEARN.models.common.Conv      [512, 256, 1, 1]
2025-05-19 15:28:20,400 - models.yolo - INFO -  53                -1  1         0  torch.nn.modules.upsampling.Upsample    [None, 2, 'nearest']
2025-05-19 15:28:20,401 - models.yolo - INFO -  54                37  1    262656  物体检测.YOLO_LEARN.models.common.Conv      [1024, 256, 1, 1]
2025-05-19 15:28:20,401 - models.yolo - INFO -  55          [-1, -2]  1         0  物体检测.YOLO_LEARN.models.common.Concat    [1]
2025-05-19 15:28:20,401 - models.yolo - INFO -  56                -1  1    131584  物体检测.YOLO_LEARN.models.common.Conv      [512, 256, 1, 1]
2025-05-19 15:28:20,402 - models.yolo - INFO -  57                -2  1    131584  物体检测.YOLO_LEARN.models.common.Conv      [512, 256, 1, 1]
2025-05-19 15:28:20,404 - models.yolo - INFO -  58                -1  1    295168  物体检测.YOLO_LEARN.models.common.Conv      [256, 128, 3, 1]
2025-05-19 15:28:20,404 - models.yolo - INFO -  59                -1  1    147712  物体检测.YOLO_LEARN.models.common.Conv      [128, 128, 3, 1]
2025-05-19 15:28:20,405 - models.yolo - INFO -  60                -1  1    147712  物体检测.YOLO_LEARN.models.common.Conv      [128, 128, 3, 1]
2025-05-19 15:28:20,405 - models.yolo - INFO -  61                -1  1    147712  物体检测.YOLO_LEARN.models.common.Conv      [128, 128, 3, 1]
2025-05-19 15:28:20,406 - models.yolo - INFO -  62[-1, -2, -3, -4, -5, -6]  1         0  物体检测.YOLO_LEARN.models.common.Concat    [1]
2025-05-19 15:28:20,407 - models.yolo - INFO -  63                -1  1    262656  物体检测.YOLO_LEARN.models.common.Conv      [1024, 256, 1, 1]
2025-05-19 15:28:20,407 - models.yolo - INFO -  64                -1  1     33024  物体检测.YOLO_LEARN.models.common.Conv      [256, 128, 1, 1]
2025-05-19 15:28:20,407 - models.yolo - INFO -  65                -1  1         0  torch.nn.modules.upsampling.Upsample    [None, 2, 'nearest']
2025-05-19 15:28:20,408 - models.yolo - INFO -  66                24  1     65792  物体检测.YOLO_LEARN.models.common.Conv      [512, 128, 1, 1]
2025-05-19 15:28:20,408 - models.yolo - INFO -  67          [-1, -2]  1         0  物体检测.YOLO_LEARN.models.common.Concat    [1]
2025-05-19 15:28:20,409 - models.yolo - INFO -  68                -1  1     33024  物体检测.YOLO_LEARN.models.common.Conv      [256, 128, 1, 1]
2025-05-19 15:28:20,409 - models.yolo - INFO -  69                -2  1     33024  物体检测.YOLO_LEARN.models.common.Conv      [256, 128, 1, 1]
2025-05-19 15:28:20,409 - models.yolo - INFO -  70                -1  1     73856  物体检测.YOLO_LEARN.models.common.Conv      [128, 64, 3, 1]
2025-05-19 15:28:20,410 - models.yolo - INFO -  71                -1  1     36992  物体检测.YOLO_LEARN.models.common.Conv      [64, 64, 3, 1]
2025-05-19 15:28:20,410 - models.yolo - INFO -  72                -1  1     36992  物体检测.YOLO_LEARN.models.common.Conv      [64, 64, 3, 1]
2025-05-19 15:28:20,410 - models.yolo - INFO -  73                -1  1     36992  物体检测.YOLO_LEARN.models.common.Conv      [64, 64, 3, 1]
2025-05-19 15:28:20,410 - models.yolo - INFO -  74[-1, -2, -3, -4, -5, -6]  1         0  物体检测.YOLO_LEARN.models.common.Concat    [1]
2025-05-19 15:28:20,411 - models.yolo - INFO -  75                -1  1     65792  物体检测.YOLO_LEARN.models.common.Conv      [512, 128, 1, 1]
2025-05-19 15:28:20,411 - models.yolo - INFO -  76                -1  1         0  物体检测.YOLO_LEARN.models.common.MP        []
2025-05-19 15:28:20,412 - models.yolo - INFO -  77                -1  1     16640  物体检测.YOLO_LEARN.models.common.Conv      [128, 128, 1, 1]
2025-05-19 15:28:20,412 - models.yolo - INFO -  78                -3  1     16640  物体检测.YOLO_LEARN.models.common.Conv      [128, 128, 1, 1]
2025-05-19 15:28:20,413 - models.yolo - INFO -  79                -1  1    147712  物体检测.YOLO_LEARN.models.common.Conv      [128, 128, 3, 2]
2025-05-19 15:28:20,413 - models.yolo - INFO -  80      [-1, -3, 63]  1         0  物体检测.YOLO_LEARN.models.common.Concat    [1]
2025-05-19 15:28:20,413 - models.yolo - INFO -  81                -1  1    131584  物体检测.YOLO_LEARN.models.common.Conv      [512, 256, 1, 1]
2025-05-19 15:28:20,414 - models.yolo - INFO -  82                -2  1    131584  物体检测.YOLO_LEARN.models.common.Conv      [512, 256, 1, 1]
2025-05-19 15:28:20,415 - models.yolo - INFO -  83                -1  1    295168  物体检测.YOLO_LEARN.models.common.Conv      [256, 128, 3, 1]
2025-05-19 15:28:20,416 - models.yolo - INFO -  84                -1  1    147712  物体检测.YOLO_LEARN.models.common.Conv      [128, 128, 3, 1]
2025-05-19 15:28:20,417 - models.yolo - INFO -  85                -1  1    147712  物体检测.YOLO_LEARN.models.common.Conv      [128, 128, 3, 1]
2025-05-19 15:28:20,418 - models.yolo - INFO -  86                -1  1    147712  物体检测.YOLO_LEARN.models.common.Conv      [128, 128, 3, 1]
2025-05-19 15:28:20,418 - models.yolo - INFO -  87[-1, -2, -3, -4, -5, -6]  1         0  物体检测.YOLO_LEARN.models.common.Concat    [1]
2025-05-19 15:28:20,419 - models.yolo - INFO -  88                -1  1    262656  物体检测.YOLO_LEARN.models.common.Conv      [1024, 256, 1, 1]
2025-05-19 15:28:20,419 - models.yolo - INFO -  89                -1  1         0  物体检测.YOLO_LEARN.models.common.MP        []
2025-05-19 15:28:20,420 - models.yolo - INFO -  90                -1  1     66048  物体检测.YOLO_LEARN.models.common.Conv      [256, 256, 1, 1]
2025-05-19 15:28:20,420 - models.yolo - INFO -  91                -3  1     66048  物体检测.YOLO_LEARN.models.common.Conv      [256, 256, 1, 1]
2025-05-19 15:28:20,423 - models.yolo - INFO -  92                -1  1    590336  物体检测.YOLO_LEARN.models.common.Conv      [256, 256, 3, 2]
2025-05-19 15:28:20,423 - models.yolo - INFO -  93      [-1, -3, 51]  1         0  物体检测.YOLO_LEARN.models.common.Concat    [1]
2025-05-19 15:28:20,425 - models.yolo - INFO -  94                -1  1    525312  物体检测.YOLO_LEARN.models.common.Conv      [1024, 512, 1, 1]
2025-05-19 15:28:20,426 - models.yolo - INFO -  95                -2  1    525312  物体检测.YOLO_LEARN.models.common.Conv      [1024, 512, 1, 1]
2025-05-19 15:28:20,430 - models.yolo - INFO -  96                -1  1   1180160  物体检测.YOLO_LEARN.models.common.Conv      [512, 256, 3, 1]
2025-05-19 15:28:20,432 - models.yolo - INFO -  97                -1  1    590336  物体检测.YOLO_LEARN.models.common.Conv      [256, 256, 3, 1]
2025-05-19 15:28:20,435 - models.yolo - INFO -  98                -1  1    590336  物体检测.YOLO_LEARN.models.common.Conv      [256, 256, 3, 1]
2025-05-19 15:28:20,437 - models.yolo - INFO -  99                -1  1    590336  物体检测.YOLO_LEARN.models.common.Conv      [256, 256, 3, 1]
2025-05-19 15:28:20,437 - models.yolo - INFO - 100[-1, -2, -3, -4, -5, -6]  1         0  物体检测.YOLO_LEARN.models.common.Concat    [1]
2025-05-19 15:28:20,441 - models.yolo - INFO - 101                -1  1   1049600  物体检测.YOLO_LEARN.models.common.Conv      [2048, 512, 1, 1]
2025-05-19 15:28:20,442 - models.yolo - INFO - 102                75  1    328704  物体检测.YOLO_LEARN.models.common.RepConv   [128, 256, 3, 1]
2025-05-19 15:28:20,446 - models.yolo - INFO - 103                88  1   1312768  物体检测.YOLO_LEARN.models.common.RepConv   [256, 512, 3, 1]
2025-05-19 15:28:20,461 - models.yolo - INFO - 104               101  1   5246976  物体检测.YOLO_LEARN.models.common.RepConv   [512, 1024, 3, 1]
Traceback (most recent call last):
  File "D:\项目\咕泡项目\物体检测\YOLO_LEARN\train.py", line 234, in <module>
    train(hyp,opt,device,tb_writer)
  File "D:\项目\咕泡项目\物体检测\YOLO_LEARN\train.py", line 70, in train
    model = Model(opt.cfg, ch=3, nc=6, anchors=hyp.get('anchors')).to(device)  # create
  File "D:\项目\咕泡项目\物体检测\YOLO_LEARN\models\yolo.py", line 268, in __init__
    self.model,self.save=parse_model(deepcopy((self.yaml)),ch=[ch])
…
