2025-05-19 15:25:19,389 - models.yolo - INFO - Overriding model.yaml nc=80 with nc=6
2025-05-19 15:25:19,390 - models.yolo - INFO -
                 from  n    params  module                                  arguments
2025-05-19 15:25:19,391 - models.yolo - INFO -   0                -1  1       928  物体检测.YOLO_LEARN.models.common.Conv      [3, 32, 3, 1]
2025-05-19 15:25:19,391 - models.yolo - INFO -   1                -1  1     18560  物体检测.YOLO_LEARN.models.common.Conv      [32, 64, 3, 2]
2025-05-19 15:25:19,392 - models.yolo - INFO -   2                -1  1     36992  物体检测.YOLO_LEARN.models.common.Conv      [64, 64, 3, 1]
2025-05-19 15:25:19,392 - models.yolo - INFO -   3                -1  1     73984  物体检测.YOLO_LEARN.models.common.Conv      [64, 128, 3, 2]
2025-05-19 15:25:19,393 - models.yolo - INFO -   4                -1  1      8320  物体检测.YOLO_LEARN.models.common.Conv      [128, 64, 1, 1]
2025-05-19 15:25:19,393 - models.yolo - INFO -   5                -2  1      8320  物体检测.YOLO_LEARN.models.common.Conv      [128, 64, 1, 1]
2025-05-19 15:25:19,393 - models.yolo - INFO -   6                -1  1     36992  物体检测.YOLO_LEARN.models.common.Conv      [64, 64, 3, 1]
2025-05-19 15:25:19,393 - models.yolo - INFO -   7                -1  1     36992  物体检测.YOLO_LEARN.models.common.Conv      [64, 64, 3, 1]
2025-05-19 15:25:19,394 - models.yolo - INFO -   8                -1  1     36992  物体检测.YOLO_LEARN.models.common.Conv      [64, 64, 3, 1]
2025-05-19 15:25:19,394 - models.yolo - INFO -   9                -1  1     36992  物体检测.YOLO_LEARN.models.common.Conv      [64, 64, 3, 1]
2025-05-19 15:25:19,394 - models.yolo - INFO -  10  [-1, -3, -5, -6]  1         0  物体检测.YOLO_LEARN.models.common.Concat    [1]
2025-05-19 15:25:19,395 - models.yolo - INFO -  11                -1  1     66048  物体检测.YOLO_LEARN.models.common.Conv      [256, 256, 1, 1]
Traceback (most recent call last):
  File "D:\项目\咕泡项目\物体检测\YOLO_LEARN\train.py", line 234, in <module>
    train(hyp,opt,device,tb_writer)
  File "D:\项目\咕泡项目\物体检测\YOLO_LEARN\train.py", line 70, in train
    model = Model(opt.cfg, ch=3, nc=6, anchors=hyp.get('anchors')).to(device)  # create
  File "D:\项目\咕泡项目\物体检测\YOLO_LEARN\models\yolo.py", line 263, in __init__
    self.model,self.save=parse_model(deepcopy((self.yaml)),ch=[ch])
…
