2025-05-27 14:54:58,718 - models.yolo - INFO - Overriding model.yaml nc=80 with nc=6
2025-05-27 14:54:58,719 - models.yolo - INFO -
                 from  n    params  module                                  arguments
2025-05-27 14:54:58,719 - models.yolo - INFO -   0                -1  1       928  ç‰©ä½“æ£€æµ‹.YOLO_LEARN.models.common.Conv      [3, 32, 3, 1]
2025-05-27 14:54:58,720 - models.yolo - INFO -   1                -1  1     18560  ç‰©ä½“æ£€æµ‹.YOLO_LEARN.models.common.Conv      [32, 64, 3, 2]
2025-05-27 14:54:58,721 - models.yolo - INFO -   2                -1  1     36992  ç‰©ä½“æ£€æµ‹.YOLO_LEARN.models.common.Conv      [64, 64, 3, 1]
2025-05-27 14:54:58,721 - models.yolo - INFO -   3                -1  1     73984  ç‰©ä½“æ£€æµ‹.YOLO_LEARN.models.common.Conv      [64, 128, 3, 2]
2025-05-27 14:54:58,722 - models.yolo - INFO -   4                -1  1      8320  ç‰©ä½“æ£€æµ‹.YOLO_LEARN.models.common.Conv      [128, 64, 1, 1]
2025-05-27 14:54:58,722 - models.yolo - INFO -   5                -2  1      8320  ç‰©ä½“æ£€æµ‹.YOLO_LEARN.models.common.Conv      [128, 64, 1, 1]
2025-05-27 14:54:58,722 - models.yolo - INFO -   6                -1  1     36992  ç‰©ä½“æ£€æµ‹.YOLO_LEARN.models.common.Conv      [64, 64, 3, 1]
2025-05-27 14:54:58,722 - models.yolo - INFO -   7                -1  1     36992  ç‰©ä½“æ£€æµ‹.YOLO_LEARN.models.common.Conv      [64, 64, 3, 1]
2025-05-27 14:54:58,723 - models.yolo - INFO -   8                -1  1     36992  ç‰©ä½“æ£€æµ‹.YOLO_LEARN.models.common.Conv      [64, 64, 3, 1]
2025-05-27 14:54:58,723 - models.yolo - INFO -   9                -1  1     36992  ç‰©ä½“æ£€æµ‹.YOLO_LEARN.models.common.Conv      [64, 64, 3, 1]
2025-05-27 14:54:58,723 - models.yolo - INFO -  10  [-1, -3, -5, -6]  1         0  ç‰©ä½“æ£€æµ‹.YOLO_LEARN.models.common.Concat    [1]
2025-05-27 14:54:58,724 - models.yolo - INFO -  11                -1  1     66048  ç‰©ä½“æ£€æµ‹.YOLO_LEARN.models.common.Conv      [256, 256, 1, 1]
2025-05-27 14:54:58,724 - models.yolo - INFO -  12                -1  1         0  ç‰©ä½“æ£€æµ‹.YOLO_LEARN.models.common.MP        []
2025-05-27 14:54:58,724 - models.yolo - INFO -  13                -1  1     33024  ç‰©ä½“æ£€æµ‹.YOLO_LEARN.models.common.Conv      [256, 128, 1, 1]
2025-05-27 14:54:58,725 - models.yolo - INFO -  14                -3  1     33024  ç‰©ä½“æ£€æµ‹.YOLO_LEARN.models.common.Conv      [256, 128, 1, 1]
2025-05-27 14:54:58,725 - models.yolo - INFO -  15                -1  1    147712  ç‰©ä½“æ£€æµ‹.YOLO_LEARN.models.common.Conv      [128, 128, 3, 2]
2025-05-27 14:54:58,725 - models.yolo - INFO -  16          [-1, -3]  1         0  ç‰©ä½“æ£€æµ‹.YOLO_LEARN.models.common.Concat    [1]
2025-05-27 14:54:58,726 - models.yolo - INFO -  17                -1  1     33024  ç‰©ä½“æ£€æµ‹.YOLO_LEARN.models.common.Conv      [256, 128, 1, 1]
2025-05-27 14:54:58,726 - models.yolo - INFO -  18                -2  1     33024  ç‰©ä½“æ£€æµ‹.YOLO_LEARN.models.common.Conv      [256, 128, 1, 1]
2025-05-27 14:54:58,726 - models.yolo - INFO -  19                -1  1    147712  ç‰©ä½“æ£€æµ‹.YOLO_LEARN.models.common.Conv      [128, 128, 3, 1]
2025-05-27 14:54:58,727 - models.yolo - INFO -  20                -1  1    147712  ç‰©ä½“æ£€æµ‹.YOLO_LEARN.models.common.Conv      [128, 128, 3, 1]
2025-05-27 14:54:58,728 - models.yolo - INFO -  21                -1  1    147712  ç‰©ä½“æ£€æµ‹.YOLO_LEARN.models.common.Conv      [128, 128, 3, 1]
2025-05-27 14:54:58,728 - models.yolo - INFO -  22                -1  1    147712  ç‰©ä½“æ£€æµ‹.YOLO_LEARN.models.common.Conv      [128, 128, 3, 1]
2025-05-27 14:54:58,729 - models.yolo - INFO -  23  [-1, -3, -5, -6]  1         0  ç‰©ä½“æ£€æµ‹.YOLO_LEARN.models.common.Concat    [1]
2025-05-27 14:54:58,730 - models.yolo - INFO -  24                -1  1    263168  ç‰©ä½“æ£€æµ‹.YOLO_LEARN.models.common.Conv      [512, 512, 1, 1]
2025-05-27 14:54:58,730 - models.yolo - INFO -  25                -1  1         0  ç‰©ä½“æ£€æµ‹.YOLO_LEARN.models.common.MP        []
2025-05-27 14:54:58,731 - models.yolo - INFO -  26                -1  1    131584  ç‰©ä½“æ£€æµ‹.YOLO_LEARN.models.common.Conv      [512, 256, 1, 1]
2025-05-27 14:54:58,731 - models.yolo - INFO -  27                -3  1    131584  ç‰©ä½“æ£€æµ‹.YOLO_LEARN.models.common.Conv      [512, 256, 1, 1]
2025-05-27 14:54:58,733 - models.yolo - INFO -  28                -1  1    590336  ç‰©ä½“æ£€æµ‹.YOLO_LEARN.models.common.Conv      [256, 256, 3, 2]
2025-05-27 14:54:58,733 - models.yolo - INFO -  29          [-1, -3]  1         0  ç‰©ä½“æ£€æµ‹.YOLO_LEARN.models.common.Concat    [1]
2025-05-27 14:54:58,734 - models.yolo - INFO -  30                -1  1    131584  ç‰©ä½“æ£€æµ‹.YOLO_LEARN.models.common.Conv      [512, 256, 1, 1]
2025-05-27 14:54:58,734 - models.yolo - INFO -  31                -2  1    131584  ç‰©ä½“æ£€æµ‹.YOLO_LEARN.models.common.Conv      [512, 256, 1, 1]
2025-05-27 14:54:58,736 - models.yolo - INFO -  32                -1  1    590336  ç‰©ä½“æ£€æµ‹.YOLO_LEARN.models.common.Conv      [256, 256, 3, 1]
2025-05-27 14:54:58,738 - models.yolo - INFO -  33                -1  1    590336  ç‰©ä½“æ£€æµ‹.YOLO_LEARN.models.common.Conv      [256, 256, 3, 1]
2025-05-27 14:54:58,740 - models.yolo - INFO -  34                -1  1    590336  ç‰©ä½“æ£€æµ‹.YOLO_LEARN.models.common.Conv      [256, 256, 3, 1]
2025-05-27 14:54:58,742 - models.yolo - INFO -  35                -1  1    590336  ç‰©ä½“æ£€æµ‹.YOLO_LEARN.models.common.Conv      [256, 256, 3, 1]
2025-05-27 14:54:58,742 - models.yolo - INFO -  36  [-1, -3, -5, -6]  1         0  ç‰©ä½“æ£€æµ‹.YOLO_LEARN.models.common.Concat    [1]
2025-05-27 14:54:58,745 - models.yolo - INFO -  37                -1  1   1050624  ç‰©ä½“æ£€æµ‹.YOLO_LEARN.models.common.Conv      [1024, 1024, 1, 1]
2025-05-27 14:54:58,745 - models.yolo - INFO -  38                -1  1         0  ç‰©ä½“æ£€æµ‹.YOLO_LEARN.models.common.MP        []
2025-05-27 14:54:58,747 - models.yolo - INFO -  39                -1  1    525312  ç‰©ä½“æ£€æµ‹.YOLO_LEARN.models.common.Conv      [1024, 512, 1, 1]
2025-05-27 14:54:58,747 - models.yolo - INFO -  40                -3  1    525312  ç‰©ä½“æ£€æµ‹.YOLO_LEARN.models.common.Conv      [1024, 512, 1, 1]
2025-05-27 14:54:58,755 - models.yolo - INFO -  41                -1  1   2360320  ç‰©ä½“æ£€æµ‹.YOLO_LEARN.models.common.Conv      [512, 512, 3, 2]
2025-05-27 14:54:58,755 - models.yolo - INFO -  42          [-1, -3]  1         0  ç‰©ä½“æ£€æµ‹.YOLO_LEARN.models.common.Concat    [1]
2025-05-27 14:54:58,755 - models.yolo - INFO -  43                -1  1    262656  ç‰©ä½“æ£€æµ‹.YOLO_LEARN.models.common.Conv      [1024, 256, 1, 1]
2025-05-27 14:54:58,757 - models.yolo - INFO -  44                -2  1    262656  ç‰©ä½“æ£€æµ‹.YOLO_LEARN.models.common.Conv      [1024, 256, 1, 1]
2025-05-27 14:54:58,759 - models.yolo - INFO -  45                -1  1    590336  ç‰©ä½“æ£€æµ‹.YOLO_LEARN.models.common.Conv      [256, 256, 3, 1]
2025-05-27 14:54:58,761 - models.yolo - INFO -  46                -1  1    590336  ç‰©ä½“æ£€æµ‹.YOLO_LEARN.models.common.Conv      [256, 256, 3, 1]
2025-05-27 14:54:58,763 - models.yolo - INFO -  47                -1  1    590336  ç‰©ä½“æ£€æµ‹.YOLO_LEARN.models.common.Conv      [256, 256, 3, 1]
2025-05-27 14:54:58,764 - models.yolo - INFO -  48                -1  1    590336  ç‰©ä½“æ£€æµ‹.YOLO_LEARN.models.common.Conv      [256, 256, 3, 1]
2025-05-27 14:54:58,764 - models.yolo - INFO -  49  [-1, -3, -5, -6]  1         0  ç‰©ä½“æ£€æµ‹.YOLO_LEARN.models.common.Concat    [1]
2025-05-27 14:54:58,768 - models.yolo - INFO -  50                -1  1   1050624  ç‰©ä½“æ£€æµ‹.YOLO_LEARN.models.common.Conv      [1024, 1024, 1, 1]
2025-05-27 14:54:58,789 - models.yolo - INFO -  51                -1  1   7609344  ç‰©ä½“æ£€æµ‹.YOLO_LEARN.models.common.SPPCSPC   [1024, 512, 1]
2025-05-27 14:54:58,790 - models.yolo - INFO -  52                -1  1    131584  ç‰©ä½“æ£€æµ‹.YOLO_LEARN.models.common.Conv      [512, 256, 1, 1]
2025-05-27 14:54:58,790 - models.yolo - INFO -  53                -1  1         0  torch.nn.modules.upsampling.Upsample    [None, 2, 'nearest']
2025-05-27 14:54:58,791 - models.yolo - INFO -  54                37  1    262656  ç‰©ä½“æ£€æµ‹.YOLO_LEARN.models.common.Conv      [1024, 256, 1, 1]
2025-05-27 14:54:58,791 - models.yolo - INFO -  55          [-1, -2]  1         0  ç‰©ä½“æ£€æµ‹.YOLO_LEARN.models.common.Concat    [1]
2025-05-27 14:54:58,792 - models.yolo - INFO -  56                -1  1    131584  ç‰©ä½“æ£€æµ‹.YOLO_LEARN.models.common.Conv      [512, 256, 1, 1]
2025-05-27 14:54:58,792 - models.yolo - INFO -  57                -2  1    131584  ç‰©ä½“æ£€æµ‹.YOLO_LEARN.models.common.Conv      [512, 256, 1, 1]
2025-05-27 14:54:58,793 - models.yolo - INFO -  58                -1  1    295168  ç‰©ä½“æ£€æµ‹.YOLO_LEARN.models.common.Conv      [256, 128, 3, 1]
2025-05-27 14:54:58,794 - models.yolo - INFO -  59                -1  1    147712  ç‰©ä½“æ£€æµ‹.YOLO_LEARN.models.common.Conv      [128, 128, 3, 1]
2025-05-27 14:54:58,795 - models.yolo - INFO -  60                -1  1    147712  ç‰©ä½“æ£€æµ‹.YOLO_LEARN.models.common.Conv      [128, 128, 3, 1]
2025-05-27 14:54:58,795 - models.yolo - INFO -  61                -1  1    147712  ç‰©ä½“æ£€æµ‹.YOLO_LEARN.models.common.Conv      [128, 128, 3, 1]
2025-05-27 14:54:58,795 - models.yolo - INFO -  62[-1, -2, -3, -4, -5, -6]  1         0  ç‰©ä½“æ£€æµ‹.YOLO_LEARN.models.common.Concat    [1]
2025-05-27 14:54:58,796 - models.yolo - INFO -  63                -1  1    262656  ç‰©ä½“æ£€æµ‹.YOLO_LEARN.models.common.Conv      [1024, 256, 1, 1]
2025-05-27 14:54:58,797 - models.yolo - INFO -  64                -1  1     33024  ç‰©ä½“æ£€æµ‹.YOLO_LEARN.models.common.Conv      [256, 128, 1, 1]
2025-05-27 14:54:58,797 - models.yolo - INFO -  65                -1  1         0  torch.nn.modules.upsampling.Upsample    [None, 2, 'nearest']
2025-05-27 14:54:58,797 - models.yolo - INFO -  66                24  1     65792  ç‰©ä½“æ£€æµ‹.YOLO_LEARN.models.common.Conv      [512, 128, 1, 1]
2025-05-27 14:54:58,798 - models.yolo - INFO -  67          [-1, -2]  1         0  ç‰©ä½“æ£€æµ‹.YOLO_LEARN.models.common.Concat    [1]
2025-05-27 14:54:58,798 - models.yolo - INFO -  68                -1  1     33024  ç‰©ä½“æ£€æµ‹.YOLO_LEARN.models.common.Conv      [256, 128, 1, 1]
2025-05-27 14:54:58,798 - models.yolo - INFO -  69                -2  1     33024  ç‰©ä½“æ£€æµ‹.YOLO_LEARN.models.common.Conv      [256, 128, 1, 1]
2025-05-27 14:54:58,799 - models.yolo - INFO -  70                -1  1     73856  ç‰©ä½“æ£€æµ‹.YOLO_LEARN.models.common.Conv      [128, 64, 3, 1]
2025-05-27 14:54:58,799 - models.yolo - INFO -  71                -1  1     36992  ç‰©ä½“æ£€æµ‹.YOLO_LEARN.models.common.Conv      [64, 64, 3, 1]
2025-05-27 14:54:58,799 - models.yolo - INFO -  72                -1  1     36992  ç‰©ä½“æ£€æµ‹.YOLO_LEARN.models.common.Conv      [64, 64, 3, 1]
2025-05-27 14:54:58,799 - models.yolo - INFO -  73                -1  1     36992  ç‰©ä½“æ£€æµ‹.YOLO_LEARN.models.common.Conv      [64, 64, 3, 1]
2025-05-27 14:54:58,799 - models.yolo - INFO -  74[-1, -2, -3, -4, -5, -6]  1         0  ç‰©ä½“æ£€æµ‹.YOLO_LEARN.models.common.Concat    [1]
2025-05-27 14:54:58,800 - models.yolo - INFO -  75                -1  1     65792  ç‰©ä½“æ£€æµ‹.YOLO_LEARN.models.common.Conv      [512, 128, 1, 1]
2025-05-27 14:54:58,800 - models.yolo - INFO -  76                -1  1         0  ç‰©ä½“æ£€æµ‹.YOLO_LEARN.models.common.MP        []
2025-05-27 14:54:58,800 - models.yolo - INFO -  77                -1  1     16640  ç‰©ä½“æ£€æµ‹.YOLO_LEARN.models.common.Conv      [128, 128, 1, 1]
2025-05-27 14:54:58,800 - models.yolo - INFO -  78                -3  1     16640  ç‰©ä½“æ£€æµ‹.YOLO_LEARN.models.common.Conv      [128, 128, 1, 1]
2025-05-27 14:54:58,801 - models.yolo - INFO -  79                -1  1    147712  ç‰©ä½“æ£€æµ‹.YOLO_LEARN.models.common.Conv      [128, 128, 3, 2]
2025-05-27 14:54:58,802 - models.yolo - INFO -  80      [-1, -3, 63]  1         0  ç‰©ä½“æ£€æµ‹.YOLO_LEARN.models.common.Concat    [1]
2025-05-27 14:54:58,802 - models.yolo - INFO -  81                -1  1    131584  ç‰©ä½“æ£€æµ‹.YOLO_LEARN.models.common.Conv      [512, 256, 1, 1]
2025-05-27 14:54:58,803 - models.yolo - INFO -  82                -2  1    131584  ç‰©ä½“æ£€æµ‹.YOLO_LEARN.models.common.Conv      [512, 256, 1, 1]
2025-05-27 14:54:58,804 - models.yolo - INFO -  83                -1  1    295168  ç‰©ä½“æ£€æµ‹.YOLO_LEARN.models.common.Conv      [256, 128, 3, 1]
2025-05-27 14:54:58,805 - models.yolo - INFO -  84                -1  1    147712  ç‰©ä½“æ£€æµ‹.YOLO_LEARN.models.common.Conv      [128, 128, 3, 1]
2025-05-27 14:54:58,806 - models.yolo - INFO -  85                -1  1    147712  ç‰©ä½“æ£€æµ‹.YOLO_LEARN.models.common.Conv      [128, 128, 3, 1]
2025-05-27 14:54:58,806 - models.yolo - INFO -  86                -1  1    147712  ç‰©ä½“æ£€æµ‹.YOLO_LEARN.models.common.Conv      [128, 128, 3, 1]
2025-05-27 14:54:58,806 - models.yolo - INFO -  87[-1, -2, -3, -4, -5, -6]  1         0  ç‰©ä½“æ£€æµ‹.YOLO_LEARN.models.common.Concat    [1]
2025-05-27 14:54:58,807 - models.yolo - INFO -  88                -1  1    262656  ç‰©ä½“æ£€æµ‹.YOLO_LEARN.models.common.Conv      [1024, 256, 1, 1]
2025-05-27 14:54:58,807 - models.yolo - INFO -  89                -1  1         0  ç‰©ä½“æ£€æµ‹.YOLO_LEARN.models.common.MP        []
2025-05-27 14:54:58,808 - models.yolo - INFO -  90                -1  1     66048  ç‰©ä½“æ£€æµ‹.YOLO_LEARN.models.common.Conv      [256, 256, 1, 1]
2025-05-27 14:54:58,808 - models.yolo - INFO -  91                -3  1     66048  ç‰©ä½“æ£€æµ‹.YOLO_LEARN.models.common.Conv      [256, 256, 1, 1]
2025-05-27 14:54:58,810 - models.yolo - INFO -  92                -1  1    590336  ç‰©ä½“æ£€æµ‹.YOLO_LEARN.models.common.Conv      [256, 256, 3, 2]
2025-05-27 14:54:58,810 - models.yolo - INFO -  93      [-1, -3, 51]  1         0  ç‰©ä½“æ£€æµ‹.YOLO_LEARN.models.common.Concat    [1]
2025-05-27 14:54:58,812 - models.yolo - INFO -  94                -1  1    525312  ç‰©ä½“æ£€æµ‹.YOLO_LEARN.models.common.Conv      [1024, 512, 1, 1]
2025-05-27 14:54:58,814 - models.yolo - INFO -  95                -2  1    525312  ç‰©ä½“æ£€æµ‹.YOLO_LEARN.models.common.Conv      [1024, 512, 1, 1]
2025-05-27 14:54:58,816 - models.yolo - INFO -  96                -1  1   1180160  ç‰©ä½“æ£€æµ‹.YOLO_LEARN.models.common.Conv      [512, 256, 3, 1]
2025-05-27 14:54:58,819 - models.yolo - INFO -  97                -1  1    590336  ç‰©ä½“æ£€æµ‹.YOLO_LEARN.models.common.Conv      [256, 256, 3, 1]
2025-05-27 14:54:58,821 - models.yolo - INFO -  98                -1  1    590336  ç‰©ä½“æ£€æµ‹.YOLO_LEARN.models.common.Conv      [256, 256, 3, 1]
2025-05-27 14:54:58,823 - models.yolo - INFO -  99                -1  1    590336  ç‰©ä½“æ£€æµ‹.YOLO_LEARN.models.common.Conv      [256, 256, 3, 1]
2025-05-27 14:54:58,823 - models.yolo - INFO - 100[-1, -2, -3, -4, -5, -6]  1         0  ç‰©ä½“æ£€æµ‹.YOLO_LEARN.models.common.Concat    [1]
2025-05-27 14:54:58,825 - models.yolo - INFO - 101                -1  1   1049600  ç‰©ä½“æ£€æµ‹.YOLO_LEARN.models.common.Conv      [2048, 512, 1, 1]
2025-05-27 14:54:58,827 - models.yolo - INFO - 102                75  1    328704  ç‰©ä½“æ£€æµ‹.YOLO_LEARN.models.common.RepConv   [128, 256, 3, 1]
2025-05-27 14:54:58,831 - models.yolo - INFO - 103                88  1   1312768  ç‰©ä½“æ£€æµ‹.YOLO_LEARN.models.common.RepConv   [256, 512, 3, 1]
2025-05-27 14:54:58,846 - models.yolo - INFO - 104               101  1   5246976  ç‰©ä½“æ£€æµ‹.YOLO_LEARN.models.common.RepConv   [512, 1024, 3, 1]
2025-05-27 14:54:58,847 - models.yolo - INFO - 105   [102, 103, 104]  1     61126  models.yolo.IDetect                     [6, [[12, 16, 19, 36, 40, 28], [36, 75, 76, 55, 72, 146], [142, 110, 192, 243, 459, 401]], [256, 512, 1024]]
D:\é¡¹ç›®\å¾®è°ƒ\.venv\lib\site-packages\torch\functional.py:513: UserWarning: torch.meshgrid: in an upcoming release, it will be required to pass the indexing argument. (Triggered internally at C:\actions-runner\_work\pytorch\pytorch\builder\windows\pytorch\aten\src\ATen\native\TensorShape.cpp:3610.)
…
