…
nload': 'bash ./scripts/get_coco.sh', 'train': 'D:\\\\PycharmProject\\\\yolov7-main\\\\NEU-DET\\\\train.txt', 'val': 'D:\\\\PycharmProject\\\\yolov7-main\\\\NEU-DET\\\\val.txt', 'nc': 6, 'names': ['crazing', 'inclusion', 'patches', 'pitted_surface', 'rolled-in_scale', 'scratches']}
2025-05-30 21:34:33,757 - models.yolo - INFO - Overriding model.yaml nc=80 with nc=6
2025-05-30 21:34:33,758 - models.yolo - INFO -
                 from  n    params  module                                  arguments
2025-05-30 21:34:33,773 - models.yolo - INFO -   0                -1  1       928  物体检测.YOLO_LEARN.models.common.Conv      [3, 32, 3, 1]
2025-05-30 21:34:33,774 - models.yolo - INFO -   1                -1  1     18560  物体检测.YOLO_LEARN.models.common.Conv      [32, 64, 3, 2]
2025-05-30 21:34:33,775 - models.yolo - INFO -   2                -1  1     36992  物体检测.YOLO_LEARN.models.common.Conv      [64, 64, 3, 1]
2025-05-30 21:34:33,775 - models.yolo - INFO -   3                -1  1     73984  物体检测.YOLO_LEARN.models.common.Conv      [64, 128, 3, 2]
2025-05-30 21:34:33,775 - models.yolo - INFO -   4                -1  1      8320  物体检测.YOLO_LEARN.models.common.Conv      [128, 64, 1, 1]
2025-05-30 21:34:33,776 - models.yolo - INFO -   5                -2  1      8320  物体检测.YOLO_LEARN.models.common.Conv      [128, 64, 1, 1]
2025-05-30 21:34:33,776 - models.yolo - INFO -   6                -1  1     36992  物体检测.YOLO_LEARN.models.common.Conv      [64, 64, 3, 1]
2025-05-30 21:34:33,776 - models.yolo - INFO -   7                -1  1     36992  物体检测.YOLO_LEARN.models.common.Conv      [64, 64, 3, 1]
2025-05-30 21:34:33,778 - models.yolo - INFO -   8                -1  1     36992  物体检测.YOLO_LEARN.models.common.Conv      [64, 64, 3, 1]
2025-05-30 21:34:33,778 - models.yolo - INFO -   9                -1  1     36992  物体检测.YOLO_LEARN.models.common.Conv      [64, 64, 3, 1]
2025-05-30 21:34:33,778 - models.yolo - INFO -  10  [-1, -3, -5, -6]  1         0  物体检测.YOLO_LEARN.models.common.Concat    [1]
2025-05-30 21:34:33,778 - models.yolo - INFO -  11                -1  1     66048  物体检测.YOLO_LEARN.models.common.Conv      [256, 256, 1, 1]
2025-05-30 21:34:33,778 - models.yolo - INFO -  12                -1  1         0  物体检测.YOLO_LEARN.models.common.MP        []
2025-05-30 21:34:33,779 - models.yolo - INFO -  13                -1  1     33024  物体检测.YOLO_LEARN.models.common.Conv      [256, 128, 1, 1]
2025-05-30 21:34:33,780 - models.yolo - INFO -  14                -3  1     33024  物体检测.YOLO_LEARN.models.common.Conv      [256, 128, 1, 1]
2025-05-30 21:34:33,780 - models.yolo - INFO -  15                -1  1    147712  物体检测.YOLO_LEARN.models.common.Conv      [128, 128, 3, 2]
2025-05-30 21:34:33,780 - models.yolo - INFO -  16          [-1, -3]  1         0  物体检测.YOLO_LEARN.models.common.Concat    [1]
2025-05-30 21:34:33,781 - models.yolo - INFO -  17                -1  1     33024  物体检测.YOLO_LEARN.models.common.Conv      [256, 128, 1, 1]
2025-05-30 21:34:33,781 - models.yolo - INFO -  18                -2  1     33024  物体检测.YOLO_LEARN.models.common.Conv      [256, 128, 1, 1]
2025-05-30 21:34:33,782 - models.yolo - INFO -  19                -1  1    147712  物体检测.YOLO_LEARN.models.common.Conv      [128, 128, 3, 1]
2025-05-30 21:34:33,783 - models.yolo - INFO -  20                -1  1    147712  物体检测.YOLO_LEARN.models.common.Conv      [128, 128, 3, 1]
2025-05-30 21:34:33,783 - models.yolo - INFO -  21                -1  1    147712  物体检测.YOLO_LEARN.models.common.Conv      [128, 128, 3, 1]
2025-05-30 21:34:33,784 - models.yolo - INFO -  22                -1  1    147712  物体检测.YOLO_LEARN.models.common.Conv      [128, 128, 3, 1]
2025-05-30 21:34:33,784 - models.yolo - INFO -  23  [-1, -3, -5, -6]  1         0  物体检测.YOLO_LEARN.models.common.Concat    [1]
2025-05-30 21:34:33,785 - models.yolo - INFO -  24                -1  1    263168  物体检测.YOLO_LEARN.models.common.Conv      [512, 512, 1, 1]
2025-05-30 21:34:33,785 - models.yolo - INFO -  25                -1  1         0  物体检测.YOLO_LEARN.models.common.MP        []
2025-05-30 21:34:33,786 - models.yolo - INFO -  26                -1  1    131584  物体检测.YOLO_LEARN.models.common.Conv      [512, 256, 1, 1]
2025-05-30 21:34:33,786 - models.yolo - INFO -  27                -3  1    131584  物体检测.YOLO_LEARN.models.common.Conv      [512, 256, 1, 1]
2025-05-30 21:34:33,789 - models.yolo - INFO -  28                -1  1    590336  物体检测.YOLO_LEARN.models.common.Conv      [256, 256, 3, 2]
2025-05-30 21:34:33,789 - models.yolo - INFO -  29          [-1, -3]  1         0  物体检测.YOLO_LEARN.models.common.Concat    [1]
2025-05-30 21:34:33,790 - models.yolo - INFO -  30                -1  1    131584  物体检测.YOLO_LEARN.models.common.Conv      [512, 256, 1, 1]
2025-05-30 21:34:33,791 - models.yolo - INFO -  31                -2  1    131584  物体检测.YOLO_LEARN.models.common.Conv      [512, 256, 1, 1]
2025-05-30 21:34:33,792 - models.yolo - INFO -  32                -1  1    590336  物体检测.YOLO_LEARN.models.common.Conv      [256, 256, 3, 1]
2025-05-30 21:34:33,795 - models.yolo - INFO -  33                -1  1    590336  物体检测.YOLO_LEARN.models.common.Conv      [256, 256, 3, 1]
2025-05-30 21:34:33,797 - models.yolo - INFO -  34                -1  1    590336  物体检测.YOLO_LEARN.models.common.Conv      [256, 256, 3, 1]
2025-05-30 21:34:33,800 - models.yolo - INFO -  35                -1  1    590336  物体检测.YOLO_LEARN.models.common.Conv      [256, 256, 3, 1]
2025-05-30 21:34:33,800 - models.yolo - INFO -  36  [-1, -3, -5, -6]  1         0  物体检测.YOLO_LEARN.models.common.Concat    [1]
2025-05-30 21:34:33,804 - models.yolo - INFO -  37                -1  1   1050624  物体检测.YOLO_LEARN.models.common.Conv      [1024, 1024, 1, 1]
2025-05-30 21:34:33,805 - models.yolo - INFO -  38                -1  1         0  物体检测.YOLO_LEARN.models.common.MP        []
2025-05-30 21:34:33,810 - models.yolo - INFO -  39                -1  1    525312  物体检测.YOLO_LEARN.models.common.Conv      [1024, 512, 1, 1]
2025-05-30 21:34:33,817 - models.yolo - INFO -  40                -3  1    525312  物体检测.YOLO_LEARN.models.common.Conv      [1024, 512, 1, 1]
2025-05-30 21:34:33,826 - models.yolo - INFO -  41                -1  1   2360320  物体检测.YOLO_LEARN.models.common.Conv      [512, 512, 3, 2]
2025-05-30 21:34:33,827 - models.yolo - INFO -  42          [-1, -3]  1         0  物体检测.YOLO_LEARN.models.common.Concat    [1]
2025-05-30 21:34:33,829 - models.yolo - INFO -  43                -1  1    262656  物体检测.YOLO_LEARN.models.common.Conv      [1024, 256, 1, 1]
2025-05-30 21:34:33,830 - models.yolo - INFO -  44                -2  1    262656  物体检测.YOLO_LEARN.models.common.Conv      [1024, 256, 1, 1]
2025-05-30 21:34:33,834 - models.yolo - INFO -  45                -1  1    590336  物体检测.YOLO_LEARN.models.common.Conv      [256, 256, 3, 1]
2025-05-30 21:34:33,836 - models.yolo - INFO -  46                -1  1    590336  物体检测.YOLO_LEARN.models.common.Conv      [256, 256, 3, 1]
2025-05-30 21:34:33,839 - models.yolo - INFO -  47                -1  1    590336  物体检测.YOLO_LEARN.models.common.Conv      [256, 256, 3, 1]
2025-05-30 21:34:33,840 - models.yolo - INFO -  48                -1  1    590336  物体检测.YOLO_LEARN.models.common.Conv      [256, 256, 3, 1]
2025-05-30 21:34:33,841 - models.yolo - INFO -  49  [-1, -3, -5, -6]  1         0  物体检测.YOLO_LEARN.models.common.Concat    [1]
2025-05-30 21:34:33,845 - models.yolo - INFO -  50                -1  1   1050624  物体检测.YOLO_LEARN.models.common.Conv      [1024, 1024, 1, 1]
2025-05-30 21:34:33,869 - models.yolo - INFO -  51                -1  1   7609344  物体检测.YOLO_LEARN.models.common.SPPCSPC   [1024, 512, 1]
2025-05-30 21:34:33,869 - models.yolo - INFO -  52                -1  1    131584  物体检测.YOLO_LEARN.models.common.Conv      [512, 256, 1, 1]
2025-05-30 21:34:33,870 - models.yolo - INFO -  53                -1  1         0  torch.nn.modules.upsampling.Upsample    [None, 2, 'nearest']
2025-05-30 21:34:33,871 - models.yolo - INFO -  54                37  1    262656  物体检测.YOLO_LEARN.models.common.Conv      [1024, 256, 1, 1]
2025-05-30 21:34:33,871 - models.yolo - INFO -  55          [-1, -2]  1         0  物体检测.YOLO_LEARN.models.common.Concat    [1]
2025-05-30 21:34:33,872 - models.yolo - INFO -  56                -1  1    131584  物体检测.YOLO_LEARN.models.common.Conv      [512, 256, 1, 1]
2025-05-30 21:34:33,873 - models.yolo - INFO -  57                -2  1    131584  物体检测.YOLO_LEARN.models.common.Conv      [512, 256, 1, 1]
2025-05-30 21:34:33,873 - models.yolo - INFO -  58                -1  1    295168  物体检测.YOLO_LEARN.models.common.Conv      [256, 128, 3, 1]
2025-05-30 21:34:33,875 - models.yolo - INFO -  59                -1  1    147712  物体检测.YOLO_LEARN.models.common.Conv      [128, 128, 3, 1]
2025-05-30 21:34:33,875 - models.yolo - INFO -  60                -1  1    147712  物体检测.YOLO_LEARN.models.common.Conv      [128, 128, 3, 1]
2025-05-30 21:34:33,876 - models.yolo - INFO -  61                -1  1    147712  物体检测.YOLO_LEARN.models.common.Conv      [128, 128, 3, 1]
2025-05-30 21:34:33,877 - models.yolo - INFO -  62[-1, -2, -3, -4, -5, -6]  1         0  物体检测.YOLO_LEARN.models.common.Concat    [1]
2025-05-30 21:34:33,877 - models.yolo - INFO -  63                -1  1    262656  物体检测.YOLO_LEARN.models.common.Conv      [1024, 256, 1, 1]
2025-05-30 21:34:33,878 - models.yolo - INFO -  64                -1  1     33024  物体检测.YOLO_LEARN.models.common.Conv      [256, 128, 1, 1]
2025-05-30 21:34:33,878 - models.yolo - INFO -  65                -1  1         0  torch.nn.modules.upsampling.Upsample    [None, 2, 'nearest']
2025-05-30 21:34:33,879 - models.yolo - INFO -  66                24  1     65792  物体检测.YOLO_LEARN.models.common.Conv      [512, 128, 1, 1]
2025-05-30 21:34:33,879 - models.yolo - INFO -  67          [-1, -2]  1         0  物体检测.YOLO_LEARN.models.common.Concat    [1]
2025-05-30 21:34:33,879 - models.yolo - INFO -  68                -1  1     33024  物体检测.YOLO_LEARN.models.common.Conv      [256, 128, 1, 1]
2025-05-30 21:34:33,880 - models.yolo - INFO -  69                -2  1     33024  物体检测.YOLO_LEARN.models.common.Conv      [256, 128, 1, 1]
2025-05-30 21:34:33,880 - models.yolo - INFO -  70                -1  1     73856  物体检测.YOLO_LEARN.models.common.Conv      [128, 64, 3, 1]
2025-05-30 21:34:33,881 - models.yolo - INFO -  71                -1  1     36992  物体检测.YOLO_LEARN.models.common.Conv      [64, 64, 3, 1]
2025-05-30 21:34:33,881 - models.yolo - INFO -  72                -1  1     36992  物体检测.YOLO_LEARN.models.common.Conv      [64, 64, 3, 1]
2025-05-30 21:34:33,881 - models.yolo - INFO -  73                -1  1     36992  物体检测.YOLO_LEARN.models.common.Conv      [64, 64, 3, 1]
2025-05-30 21:34:33,881 - models.yolo - INFO -  74[-1, -2, -3, -4, -5, -6]  1         0  物体检测.YOLO_LEARN.models.common.Concat    [1]
2025-05-30 21:34:33,882 - models.yolo - INFO -  75                -1  1     65792  物体检测.YOLO_LEARN.models.common.Conv      [512, 128, 1, 1]
2025-05-30 21:34:33,882 - models.yolo - INFO -  76                -1  1         0  物体检测.YOLO_LEARN.models.common.MP        []
2025-05-30 21:34:33,883 - models.yolo - INFO -  77                -1  1     16640  物体检测.YOLO_LEARN.models.common.Conv      [128, 128, 1, 1]
2025-05-30 21:34:33,883 - models.yolo - INFO -  78                -3  1     16640  物体检测.YOLO_LEARN.models.common.Conv      [128, 128, 1, 1]
2025-05-30 21:34:33,884 - models.yolo - INFO -  79                -1  1    147712  物体检测.YOLO_LEARN.models.common.Conv      [128, 128, 3, 2]
2025-05-30 21:34:33,884 - models.yolo - INFO -  80      [-1, -3, 63]  1         0  物体检测.YOLO_LEARN.models.common.Concat    [1]
2025-05-30 21:34:33,884 - models.yolo - INFO -  81                -1  1    131584  物体检测.YOLO_LEARN.models.common.Conv      [512, 256, 1, 1]
2025-05-30 21:34:33,885 - models.yolo - INFO -  82                -2  1    131584  物体检测.YOLO_LEARN.models.common.Conv      [512, 256, 1, 1]
2025-05-30 21:34:33,886 - models.yolo - INFO -  83                -1  1    295168  物体检测.YOLO_LEARN.models.common.Conv      [256, 128, 3, 1]
2025-05-30 21:34:33,887 - models.yolo - INFO -  84                -1  1    147712  物体检测.YOLO_LEARN.models.common.Conv      [128, 128, 3, 1]
2025-05-30 21:34:33,888 - models.yolo - INFO -  85                -1  1    147712  物体检测.YOLO_LEARN.models.common.Conv      [128, 128, 3, 1]
2025-05-30 21:34:33,889 - models.yolo - INFO -  86                -1  1    147712  物体检测.YOLO_LEARN.models.common.Conv      [128, 128, 3, 1]
2025-05-30 21:34:33,889 - models.yolo - INFO -  87[-1, -2, -3, -4, -5, -6]  1         0  物体检测.YOLO_LEARN.models.common.Concat    [1]
2025-05-30 21:34:33,890 - models.yolo - INFO -  88                -1  1    262656  物体检测.YOLO_LEARN.models.common.Conv      [1024, 256, 1, 1]
2025-05-30 21:34:33,890 - models.yolo - INFO -  89                -1  1         0  物体检测.YOLO_LEARN.models.common.MP        []
2025-05-30 21:34:33,891 - models.yolo - INFO -  90                -1  1     66048  物体检测.YOLO_LEARN.models.common.Conv      [256, 256, 1, 1]
2025-05-30 21:34:33,891 - models.yolo - INFO -  91                -3  1     66048  物体检测.YOLO_LEARN.models.common.Conv      [256, 256, 1, 1]
2025-05-30 21:34:33,892 - models.yolo - INFO -  92                -1  1    590336  物体检测.YOLO_LEARN.models.common.Conv      [256, 256, 3, 2]
2025-05-30 21:34:33,892 - models.yolo - INFO -  93      [-1, -3, 51]  1         0  物体检测.YOLO_LEARN.models.common.Concat    [1]
2025-05-30 21:34:33,895 - models.yolo - INFO -  94                -1  1    525312  物体检测.YOLO_LEARN.models.common.Conv      [1024, 512, 1, 1]
2025-05-30 21:34:33,897 - models.yolo - INFO -  95                -2  1    525312  物体检测.YOLO_LEARN.models.common.Conv      [1024, 512, 1, 1]
2025-05-30 21:34:33,901 - models.yolo - INFO -  96                -1  1   1180160  物体检测.YOLO_LEARN.models.common.Conv      [512, 256, 3, 1]
2025-05-30 21:34:33,903 - models.yolo - INFO -  97                -1  1    590336  物体检测.YOLO_LEARN.models.common.Conv      [256, 256, 3, 1]
2025-05-30 21:34:33,905 - models.yolo - INFO -  98                -1  1    590336  物体检测.YOLO_LEARN.models.common.Conv      [256, 256, 3, 1]
2025-05-30 21:34:33,907 - models.yolo - INFO -  99                -1  1    590336  物体检测.YOLO_LEARN.models.common.Conv      [256, 256, 3, 1]
2025-05-30 21:34:33,907 - models.yolo - INFO - 100[-1, -2, -3, -4, -5, -6]  1         0  物体检测.YOLO_LEARN.models.common.Concat    [1]
2025-05-30 21:34:33,911 - models.yolo - INFO - 101                -1  1   1049600  物体检测.YOLO_LEARN.models.common.Conv      [2048, 512, 1, 1]
2025-05-30 21:34:33,912 - models.yolo - INFO - 102                75  1    328704  物体检测.YOLO_LEARN.models.common.RepConv   [128, 256, 3, 1]
2025-05-30 21:34:33,916 - models.yolo - INFO - 103                88  1   1312768  物体检测.YOLO_LEARN.models.common.RepConv   [256, 512, 3, 1]
2025-05-30 21:34:33,932 - models.yolo - INFO - 104               101  1   5246976  物体检测.YOLO_LEARN.models.common.RepConv   [512, 1024, 3, 1]
2025-05-30 21:34:33,943 - models.yolo - INFO - 105   [102, 103, 104]  1     61126  models.yolo.IDetect                     [6, [[12, 16, 19, 36, 40, 28], [36, 75, 76, 55, 72, 146], [142, 110, 192, 243, 459, 401]], [256, 512, 1024]]
D:\项目\微调\.venv\lib\site-packages\torch\functional.py:534: UserWarning: torch.meshgrid: in an upcoming release, it will be required to pass the indexing argument. (Triggered internally at C:\actions-runner\_work\pytorch\pytorch\builder\windows\pytorch\aten\src\ATen\native\TensorShape.cpp:3596.)
…
